GBSUN/model/3d_unet_postoperative/3DUNet_postoperative_final_conv_baysian.pt (torch, 1409 bytes, 2 tensors)

weight f4 [4, 16, 1, 1, 1]
00000000: 8fdd 5bbe 20b4 ae3e 0544 853e f729 05bf
00000010: 7ec2 c0bd 4a46 753e 10db e53e 928b 2dbe
00000020: b558 6abd 4424 a43d b7c8 3b3e 2e61 b8bd
00000030: 0226 dabe 243c f03c eba1 f53e 8b77 a1be
00000040: 6878 013e 27ab babc 0873 aabe 7df0 3cbd
00000050: 9ed1 c13d b3b6 0ebe c045 07bf f60d d63e
00000060: 1f06 96bd c466 0abd 107b 4bbe 68c6 e63b
00000070: 3839 1c3e 845f f1be accf ddbe 2f8a a93d
00000080: 1a70 833e 8735 10be f7f9 813d 31f7 803e
00000090: f2d6 893e c36d c4be 98ae 72be 8d18 b93d
000000a0: 88b9 653d 8ca8 87be bbdf b33d 1d5e 563e
000000b0: 3dcb 933e 48b7 313e 82f2 753c a7de 9f3e
000000c0: f4de b13e 7abb 363d d74b 063e 2727 f1bd
000000d0: 861c eb3e 142e 0ebe aab5 20be a96f a0bd
000000e0: 6e07 803e 55dd 4cbe 999c 95be d338 ea3e
000000f0: 3241 543e caa0 97be b20e 1b3c 8d04 253e
-0.21471237 0.341218 0.26028457 -0.5201716 -0.094120964 0.23952594 0.44893694 -0.16947773
-0.057213504 0.080147296 0.18338285 -0.090029106 -0.42607123 0.029325552 0.47975096 -0.31536517
0.12643588 -0.02278669 -0.33290887 -0.046127785 0.094638094 -0.13936882 -0.52840805 0.41807526
-0.07325386 -0.03378941 -0.19871163 0.007042695 0.15256202 -0.47143185 -0.43322504 0.082783096
0.25671464 -0.14082919 0.06346505 0.25188592 0.26921803 -0.38364992 -0.23699415 0.09037886
0.05608514 -0.2649578 0.087829076 0.20934339 0.28865996 0.17355072 0.015011432 0.31224558
0.34740412 0.044612385 0.13114868 -0.11775046 0.459202 -0.13884765 -0.156943 -0.078337975
0.25005668 -0.20006306 -0.29221037 0.45746478 0.20727995 -0.2961486 0.009463953 0.16115017

bias f4 [4]
00000000: e987 dc3e ccc1 cd3c ae26 8bbe 7e02 49bd
0.4307244 0.025116824 -0.27177948 -0.049074642
